*** SLURM BATCH JOB 'test_job' STARTING ***
*** Activating environment cs236781-hw ***
Files already downloaded and verified
Files already downloaded and verified
ResNetClassifier(
  (feature_extractor): Sequential(
    (0): ResidualBlock(
      (main_path): Sequential(
        (0): Conv2d(3, 64, kernel_size=(3, 3), stride=(1, 1), padding=(1, 1))
        (1): Dropout2d(p=0.0, inplace=False)
        (2): ReLU()
        (3): Conv2d(64, 64, kernel_size=(3, 3), stride=(1, 1), padding=(1, 1))
      )
      (shortcut_path): Sequential(
        (0): Conv2d(3, 64, kernel_size=(1, 1), stride=(1, 1), bias=False)
      )
    )
    (1): AvgPool2d(kernel_size=1, stride=1, padding=0)
    (2): ResidualBlock(
      (main_path): Sequential(
        (0): Conv2d(64, 128, kernel_size=(3, 3), stride=(1, 1), padding=(1, 1))
        (1): Dropout2d(p=0.0, inplace=False)
        (2): ReLU()
        (3): Conv2d(128, 128, kernel_size=(3, 3), stride=(1, 1), padding=(1, 1))
      )
      (shortcut_path): Sequential(
        (0): Conv2d(64, 128, kernel_size=(1, 1), stride=(1, 1), bias=False)
      )
    )
    (3): AvgPool2d(kernel_size=1, stride=1, padding=0)
    (4): ResidualBlock(
      (main_path): Sequential(
        (0): Conv2d(128, 256, kernel_size=(3, 3), stride=(1, 1), padding=(1, 1))
        (1): Dropout2d(p=0.0, inplace=False)
        (2): ReLU()
        (3): Conv2d(256, 256, kernel_size=(3, 3), stride=(1, 1), padding=(1, 1))
      )
      (shortcut_path): Sequential(
        (0): Conv2d(128, 256, kernel_size=(1, 1), stride=(1, 1), bias=False)
      )
    )
    (5): AvgPool2d(kernel_size=1, stride=1, padding=0)
  )
  (classifier): Sequential(
    (0): Linear(in_features=262144, out_features=100, bias=True)
    (1): ReLU()
    (2): Linear(in_features=100, out_features=10, bias=True)
  )
)
--- EPOCH 1/20 ---
train_batch:   0%|          | 0/200 [00:00<?, ?it/s]train_batch (2.314):   0%|          | 0/200 [00:00<?, ?it/s]train_batch (2.314):   0%|          | 1/200 [00:00<03:06,  1.07it/s]train_batch (4.399):   0%|          | 1/200 [00:00<03:06,  1.07it/s]train_batch (2.594):   1%|          | 2/200 [00:01<03:05,  1.07it/s]train_ba
…
00, 54.34it/s]test_batch (1.828):  99%|█████████▉| 198/200 [00:03<00:00, 54.34it/s]test_batch (2.512): 100%|█████████▉| 199/200 [00:03<00:00, 54.34it/s]test_batch (Avg. Loss 2.024, Accuracy 46.9): 100%|██████████| 200/200 [00:03<00:00, 54.34it/s]test_batch (Avg. Loss 2.024, Accuracy 46.9): 100%|██████████| 200/200 [00:03<00:00, 54.33it/s]
*** Output file ./results/exp1_4_L2_K64-128-256.json written
Files already downloaded and verified
Files already downloaded and verified
ResNetClassifier(
  (feature_extractor): Sequential(
    (0): ResidualBlock(
      (main_path): Sequential(
        (0): Conv2d(3, 64, kernel_size=(3, 3), stride=(1, 1), padding=(1, 1))
        (1): Dropout2d(p=0.0, inplace=False)
        (2): ReLU()
        (3): Conv2d(64, 64, kernel_size=(3, 3), stride=(1, 1), padding=(1, 1))
        (4): Dropout2d(p=0.0, inplace=False)
        (5): ReLU()
        (6): Conv2d(64, 64, kernel_size=(3, 3), stride=(1, 1), padding=(1, 1))
      )
      (shortcut_path): Sequential(
        (0): Conv2d(3, 64, kernel_size=(1, 1), stride=(1, 1), bias=False)
      )
    )
    (1): AvgPool2d(kernel_size=1, stride=1, padding=0)
    (2): ResidualBlock(
      (main_path): Sequential(
        (0): Conv2d(64, 64, kernel_size=(3, 3), stride=(1, 1), padding=(1, 1))
        (1): Dropout2d(p=0.0, inplace=False)
        (2): ReLU()
        (3): Conv2d(64, 128, kernel_size=(3, 3), stride=(1, 1), padding=(1, 1))
        (4): Dropout2d(p=0.0, inplace=False)
        (5): ReLU()
        (6): Conv2d(128, 128, kernel_size=(3, 3), stride=(1, 1), padding=(1, 1))
      )
      (shortcut_path): Sequential(
        (0): Conv2d(64, 128, kernel_size=(1, 1), stride=(1, 1), bias=False)
      )
    )
    (3): AvgPool2d(kernel_size=1, stride=1, padding=0)
    (4): ResidualBlock(
      (main_path): Sequential(
        (0): Conv2d(128, 128, kernel_size=(3, 3), stride=(1, 1), padding=(1, 1))
        (1): Dropout2d(p=0.0, inplace=False)
        (2): ReLU()
        (3): Conv2d(128, 128, kernel_size=(3, 3), stride=(1, 1), padding=(1, 1))
        (4): Dropout2d(p=0.0, inplace=False)
        (5): ReLU()
        (6): Conv2d(128, 256, kernel_size=(3, 3), stride=(1, 1), padding=(1, 1))
      )
      (shortcut_path): Sequential(
        (0): Conv2d(128, 256, kernel_size=(1, 1), stride=(1, 1), bias=False)
      )
    )
    (5): AvgPool2d(kernel_size=1, stride=1, padding=0)
    (6): ResidualBlock(
      (main_path): Sequential(
        (0): Conv2d(256, 256, kernel_size=(3, 3), stride=(1, 1), padding=(1, 1))
        (1): Dropout2d(p=0.0, inplace=False)
        (2): ReLU()
        (3): Conv2d(256, 256, kernel_size=(3, 3), stride=(1, 1), padding=(1, 1))
        (4): Dropout2d(p=0.0, inplace=False)
        (5): ReLU()
        (6): Conv2d(256, 256, kernel_size=(3, 3), stride=(1, 1), padding=(1, 1))
      )
      (shortcut_path): Sequential(
        (0): Identity()
      )
    )
    (7): AvgPool2d(kernel_size=1, stride=1, padding=0)
  )
  (classifier): Sequential(
    (0): Linear(in_features=262144, out_features=100, bias=True)
    (1): ReLU()
    (2): Linear(in_features=100, out_features=10, bias=True)
  )
)
--- EPOCH 1/20 ---
train_batch:   0%|          | 0/200 [00:00<?, ?it/s]train_batch (2.304):   0%|          | 0/200 [00:00<?, ?it/s]train_batch (9.228):   0%|          | 1/200 [00:00<00:29,  6.71it/s]train_batch (9.228):   1%|          | 2/200 [00:00<00:14, 13.41it/s]train_batch (2.724):   1%|          | 2/200 [00:00<00:14, 13.41it/s]train_ba
…
00, 34.19it/s]test_batch (2.219): 100%|█████████▉| 199/200 [00:05<00:00, 34.19it/s]test_batch (2.219): 100%|██████████| 200/200 [00:05<00:00, 34.30it/s]test_batch (Avg. Loss 1.978, Accuracy 47.4): 100%|██████████| 200/200 [00:05<00:00, 34.30it/s]test_batch (Avg. Loss 1.978, Accuracy 47.4): 100%|██████████| 200/200 [00:05<00:00, 34.27it/s]
*** Output file ./results/exp1_4_L4_K64-128-256.json written
Files already downloaded and verified
Files already downloaded and verified
ResNetClassifier(
  (feature_extractor): Sequential(
    (0): ResidualBlock(
      (main_path): Sequential(
        (0): Conv2d(3, 64, kernel_size=(3, 3), stride=(1, 1), padding=(1, 1))
        (1): Dropout2d(p=0.0, inplace=False)
        (2): ReLU()
        (3): Conv2d(64, 64, kernel_size=(3, 3), stride=(1, 1), padding=(1, 1))
        (4): Dropout2d(p=0.0, inplace=False)
        (5): ReLU()
        (6): Conv2d(64, 64, kernel_size=(3, 3), stride=(1, 1), padding=(1, 1))
        (7): Dropout2d(p=0.0, inplace=False)
        (8): ReLU()
        (9): Conv2d(64, 64, kernel_size=(3, 3), stride=(1, 1), padding=(1, 1))
        (10): Dropout2d(p=0.0, inplace=False)
        (11): ReLU()
        (12): Conv2d(64, 64, kernel_size=(3, 3), stride=(1, 1), padding=(1, 1))
      )
      (shortcut_path): Sequential(
        (0): Conv2d(3, 64, kernel_size=(1, 1), stride=(1, 1), bias=False)
      )
    )
    (1): AvgPool2d(kernel_size=1, stride=1, padding=0)
    (2): ResidualBlock(
      (main_path): Sequential(
        (0): Conv2d(64, 64, kernel_size=(3, 3), stride=(1, 1), padding=(1, 1))
        (1): Dropout2d(p=0.0, inplace=False)
        (2): ReLU()
        (3): Conv2d(64, 64, kernel_size=(3, 3), stride=(1, 1), padding=(1, 1))
        (4): Dropout2d(p=0.0, inplace=False)
        (5): ReLU()
        (6): Conv2d(64, 64, kernel_size=(3, 3), stride=(1, 1), padding=(1, 1))
        (7): Dropout2d(p=0.0, inplace=False)
        (8): ReLU()
        (9): Conv2d(64, 128, kernel_size=(3, 3), stride=(1, 1), padding=(1, 1))
        (10): Dropout2d(p=0.0, inplace=False)
        (11): ReLU()
        (12): Conv2d(128, 128, kernel_size=(3, 3), stride=(1, 1), padding=(1, 1))
      )
      (shortcut_path): Sequential(
        (0): Conv2d(64, 128, kernel_size=(1, 1), stride=(1, 1), bias=False)
      )
    )
    (3): AvgPool2d(kernel_size=1, stride=1, padding=0)
    (4): ResidualBlock(
      (main_path): Sequential(
        (0): Conv2d(128, 128, kernel_size=(3, 3), stride=(1, 1), padding=(1, 1))
        (1): Dropout2d(p=0.0, inplace=False)
        (2): ReLU()
        (3): Conv2d(128, 128, kernel_size=(3, 3), stride=(1, 1), padding=(1, 1))
        (4): Dropout2d(p=0.0, inplace=False)
        (5): ReLU()
        (6): Conv2d(128, 128, kernel_size=(3, 3), stride=(1, 1), padding=(1, 1))
        (7): Dropout2d(p=0.0, inplace=False)
        (8): ReLU()
        (9): Conv2d(128, 128, kernel_size=(3, 3), stride=(1, 1), padding=(1, 1))
        (10): Dropout2d(p=0.0, inplace=False)
        (11): ReLU()
        (12): Conv2d(128, 128, kernel_size=(3, 3), stride=(1, 1), padding=(1, 1))
      )
      (shortcut_path): Sequential(
        (0): Identity()
      )
    )
    (5): AvgPool2d(kernel_size=1, stride=1, padding=0)
    (6): ResidualBlock(
      (main_path): Sequential(
        (0): Conv2d(128, 128, kernel_size=(3, 3), stride=(1, 1), padding=(1, 1))
        (1): Dropout2d(p=0.0, inplace=False)
        (2): ReLU()
        (3): Conv2d(128, 256, kernel_size=(3, 3), stride=(1, 1), padding=(1, 1))
        (4): Dropout2d(p=0.0, inplace=False)
        (5): ReLU()
        (6): Conv2d(256, 256, kernel_size=(3, 3), stride=(1, 1), padding=(1, 1))
        (7): Dropout2d(p=0.0, inplace=False)
        (8): ReLU()
        (9): Conv2d(256, 256, kernel_size=(3, 3), stride=(1, 1), padding=(1, 1))
        (10): Dropout2d(p=0.0, inplace=False)
        (11): ReLU()
        (12): Conv2d(256, 256, kernel_size=(3, 3), stride=(1, 1), padding=(1, 1))
      )
      (shortcut_path): Sequential(
        (0): Conv2d(128, 256, kernel_size=(1, 1), stride=(1, 1), bias=False)
      )
    )
    (7): AvgPool2d(kernel_size=1, stride=1, padding=0)
    (8): ResidualBlock(
      (main_path): Sequential(
        (0): Conv2d(256, 256, kernel_size=(3, 3), stride=(1, 1), padding=(1, 1))
        (1): Dropout2d(p=0.0, inplace=False)
        (2): ReLU()
        (3): Conv2d(256, 256, kernel_size=(3, 3), stride=(1, 1), padding=(1, 1))
        (4): Dropout2d(p=0.0, inplace=False)
        (5): ReLU()
        (6): Conv2d(256, 256, kernel_size=(3, 3), stride=(1, 1), padding=(1, 1))
        (7): Dropout2d(p=0.0, inplace=False)
        (8): ReLU()
        (9): Conv2d(256, 256, kernel_size=(3, 3), stride=(1, 1), padding=(1, 1))
      )
      (shortcut_path): Sequential(
        (0): Identity()
      )
    )
  )
  (classifier): Sequential(
    (0): Linear(in_features=262144, out_features=100, bias=True)
    (1): ReLU()
    (2): Linear(in_features=100, out_features=10, bias=True)
  )
)
--- EPOCH 1/20 ---
train_batch:   0%|          | 0/200 [00:00<?, ?it/s]train_batch (2.290):   0%|          | 0/200 [00:00<?, ?it/s]train_batch (2.290):   0%|          | 1/200 [00:00<00:25,  7.85it/s]train_batch (4.640):   0%|          | 1/200 [00:00<00:25,  7.85it/s]train_batch (4.640):   1%|          | 2/200 [00:00<00:25,  7.74it/s]train_ba
…
