*** SLURM BATCH JOB 'test_job' STARTING ***
*** Activating environment cs236781-hw ***
Files already downloaded and verified
Files already downloaded and verified
ResNetClassifier(
  (feature_extractor): Sequential(
    (0): ResidualBlock(
      (main_path): Sequential(
        (0): Conv2d(3, 32, kernel_size=(3, 3), stride=(1, 1), padding=(1, 1))
        (1): Dropout2d(p=0.0, inplace=False)
        (2): ReLU()
        (3): Conv2d(32, 32, kernel_size=(3, 3), stride=(1, 1), padding=(1, 1))
        (4): Dropout2d(p=0.0, inplace=False)
        (5): ReLU()
        (6): Conv2d(32, 32, kernel_size=(3, 3), stride=(1, 1), padding=(1, 1))
        (7): Dropout2d(p=0.0, inplace=False)
        (8): ReLU()
        (9): Conv2d(32, 32, kernel_size=(3, 3), stride=(1, 1), padding=(1, 1))
        (10): Dropout2d(p=0.0, inplace=False)
        (11): ReLU()
        (12): Conv2d(32, 32, kernel_size=(3, 3), stride=(1, 1), padding=(1, 1))
      )
      (shortcut_path): Sequential(
        (0): Conv2d(3, 32, kernel_size=(1, 1), stride=(1, 1), bias=False)
      )
    )
    (1): AvgPool2d(kernel_size=1, stride=1, padding=0)
    (2): ResidualBlock(
      (main_path): Sequential(
        (0): Conv2d(32, 32, kernel_size=(3, 3), stride=(1, 1), padding=(1, 1))
        (1): Dropout2d(p=0.0, inplace=False)
        (2): ReLU()
        (3): Conv2d(32, 32, kernel_size=(3, 3), stride=(1, 1), padding=(1, 1))
        (4): Dropout2d(p=0.0, inplace=False)
        (5): ReLU()
        (6): Conv2d(32, 32, kernel_size=(3, 3), stride=(1, 1), padding=(1, 1))
      )
      (shortcut_path): Sequential(
        (0): Identity()
      )
    )
  )
  (classifier): Sequential(
    (0): Linear(in_features=32768, out_features=100, bias=True)
    (1): ReLU()
    (2): Linear(in_features=100, out_features=10, bias=True)
  )
)
--- EPOCH 1/20 ---
train_batch:   0%|          | 0/167 [00:00<?, ?it/s]train_batch (2.311):   0%|          | 0/167 [00:00<?, ?it/s]train_batch (2.311):   1%|          | 1/167 [00:00<02:30,  1.10it/s]train_batch (4.167):   1%|          | 1/167 [00:00<02:30,  1.10it/s]train_batch (3.024):   1%|          | 2/167 [00:01<02:29,  1.10it/s]train_ba
…
0:01<00:00, 82.64it/s]test_batch (1.473):  99%|█████████▊| 132/134 [00:01<00:00, 82.64it/s]test_batch (1.050):  99%|█████████▉| 133/134 [00:01<00:00, 82.64it/s]test_batch (Avg. Loss 1.255, Accuracy 60.5): 100%|██████████| 134/134 [00:01<00:00, 82.64it/s]test_batch (Avg. Loss 1.255, Accuracy 60.5): 100%|██████████| 134/134 [00:01<00:00, 83.04it/s]
*** Output file ./results/exp1_4_L8_K32.json written
Files already downloaded and verified
Files already downloaded and verified
ResNetClassifier(
  (feature_extractor): Sequential(
    (0): ResidualBlock(
      (main_path): Sequential(
        (0): Conv2d(3, 32, kernel_size=(3, 3), stride=(1, 1), padding=(1, 1))
        (1): Dropout2d(p=0.0, inplace=False)
        (2): ReLU()
        (3): Conv2d(32, 32, kernel_size=(3, 3), stride=(1, 1), padding=(1, 1))
        (4): Dropout2d(p=0.0, inplace=False)
        (5): ReLU()
        (6): Conv2d(32, 32, kernel_size=(3, 3), stride=(1, 1), padding=(1, 1))
        (7): Dropout2d(p=0.0, inplace=False)
        (8): ReLU()
        (9): Conv2d(32, 32, kernel_size=(3, 3), stride=(1, 1), padding=(1, 1))
        (10): Dropout2d(p=0.0, inplace=False)
        (11): ReLU()
        (12): Conv2d(32, 32, kernel_size=(3, 3), stride=(1, 1), padding=(1, 1))
        (13): Dropout2d(p=0.0, inplace=False)
        (14): ReLU()
        (15): Conv2d(32, 32, kernel_size=(3, 3), stride=(1, 1), padding=(1, 1))
        (16): Dropout2d(p=0.0, inplace=False)
        (17): ReLU()
        (18): Conv2d(32, 32, kernel_size=(3, 3), stride=(1, 1), padding=(1, 1))
        (19): Dropout2d(p=0.0, inplace=False)
        (20): ReLU()
        (21): Conv2d(32, 32, kernel_size=(3, 3), stride=(1, 1), padding=(1, 1))
        (22): Dropout2d(p=0.0, inplace=False)
        (23): ReLU()
        (24): Conv2d(32, 32, kernel_size=(3, 3), stride=(1, 1), padding=(1, 1))
      )
      (shortcut_path): Sequential(
        (0): Conv2d(3, 32, kernel_size=(1, 1), stride=(1, 1), bias=False)
      )
    )
    (1): AvgPool2d(kernel_size=1, stride=1, padding=0)
    (2): ResidualBlock(
      (main_path): Sequential(
        (0): Conv2d(32, 32, kernel_size=(3, 3), stride=(1, 1), padding=(1, 1))
        (1): Dropout2d(p=0.0, inplace=False)
        (2): ReLU()
        (3): Conv2d(32, 32, kernel_size=(3, 3), stride=(1, 1), padding=(1, 1))
        (4): Dropout2d(p=0.0, inplace=False)
        (5): ReLU()
        (6): Conv2d(32, 32, kernel_size=(3, 3), stride=(1, 1), padding=(1, 1))
        (7): Dropout2d(p=0.0, inplace=False)
        (8): ReLU()
        (9): Conv2d(32, 32, kernel_size=(3, 3), stride=(1, 1), padding=(1, 1))
        (10): Dropout2d(p=0.0, inplace=False)
        (11): ReLU()
        (12): Conv2d(32, 32, kernel_size=(3, 3), stride=(1, 1), padding=(1, 1))
        (13): Dropout2d(p=0.0, inplace=False)
        (14): ReLU()
        (15): Conv2d(32, 32, kernel_size=(3, 3), stride=(1, 1), padding=(1, 1))
        (16): Dropout2d(p=0.0, inplace=False)
        (17): ReLU()
        (18): Conv2d(32, 32, kernel_size=(3, 3), stride=(1, 1), padding=(1, 1))
      )
      (shortcut_path): Sequential(
        (0): Identity()
      )
    )
  )
  (classifier): Sequential(
    (0): Linear(in_features=32768, out_features=100, bias=True)
    (1): ReLU()
    (2): Linear(in_features=100, out_features=10, bias=True)
  )
)
--- EPOCH 1/20 ---
train_batch:   0%|          | 0/167 [00:00<?, ?it/s]train_batch (2.300):   0%|          | 0/167 [00:00<?, ?it/s]train_batch (3.173):   1%|          | 1/167 [00:00<00:31,  5.22it/s]train_batch (3.173):   1%|          | 2/167 [00:00<00:15, 10.44it/s]train_batch (2.607):   1%|          | 2/167 [00:00<00:15, 10.44it/s]train_ba
…
:01<00:00, 70.96it/s]test_batch (1.153):  99%|█████████▊| 132/134 [00:01<00:00, 70.96it/s]test_batch (1.472):  99%|█████████▉| 133/134 [00:01<00:00, 70.96it/s]test_batch (Avg. Loss 1.063, Accuracy 63.8): 100%|██████████| 134/134 [00:01<00:00, 70.96it/s]test_batch (Avg. Loss 1.063, Accuracy 63.8): 100%|██████████| 134/134 [00:01<00:00, 71.08it/s]
*** Output file ./results/exp1_4_L16_K32.json written
Files already downloaded and verified
Files already downloaded and verified
ResNetClassifier(
  (feature_extractor): Sequential(
    (0): ResidualBlock(
      (main_path): Sequential(
        (0): Conv2d(3, 32, kernel_size=(3, 3), stride=(1, 1), padding=(1, 1))
        (1): Dropout2d(p=0.0, inplace=False)
        (2): ReLU()
        (3): Conv2d(32, 32, kernel_size=(3, 3), stride=(1, 1), padding=(1, 1))
        (4): Dropout2d(p=0.0, inplace=False)
        (5): ReLU()
        (6): Conv2d(32, 32, kernel_size=(3, 3), stride=(1, 1), padding=(1, 1))
        (7): Dropout2d(p=0.0, inplace=False)
        (8): ReLU()
        (9): Conv2d(32, 32, kernel_size=(3, 3), stride=(1, 1), padding=(1, 1))
        (10): Dropout2d(p=0.0, inplace=False)
        (11): ReLU()
        (12): Conv2d(32, 32, kernel_size=(3, 3), stride=(1, 1), padding=(1, 1))
        (13): Dropout2d(p=0.0, inplace=False)
        (14): ReLU()
        (15): Conv2d(32, 32, kernel_size=(3, 3), stride=(1, 1), padding=(1, 1))
        (16): Dropout2d(p=0.0, inplace=False)
        (17): ReLU()
        (18): Conv2d(32, 32, kernel_size=(3, 3), stride=(1, 1), padding=(1, 1))
        (19): Dropout2d(p=0.0, inplace=False)
        (20): ReLU()
        (21): Conv2d(32, 32, kernel_size=(3, 3), stride=(1, 1), padding=(1, 1))
        (22): Dropout2d(p=0.0, inplace=False)
        (23): ReLU()
        (24): Conv2d(32, 32, kernel_size=(3, 3), stride=(1, 1), padding=(1, 1))
        (25): Dropout2d(p=0.0, inplace=False)
        (26): ReLU()
        (27): Conv2d(32, 32, kernel_size=(3, 3), stride=(1, 1), padding=(1, 1))
        (28): Dropout2d(p=0.0, inplace=False)
        (29): ReLU()
        (30): Conv2d(32, 32, kernel_size=(3, 3), stride=(1, 1), padding=(1, 1))
        (31): Dropout2d(p=0.0, inplace=False)
        (32): ReLU()
        (33): Conv2d(32, 32, kernel_size=(3, 3), stride=(1, 1), padding=(1, 1))
        (34): Dropout2d(p=0.0, inplace=False)
        (35): ReLU()
        (36): Conv2d(32, 32, kernel_size=(3, 3), stride=(1, 1), padding=(1, 1))
        (37): Dropout2d(p=0.0, inplace=False)
        (38): ReLU()
        (39): Conv2d(32, 32, kernel_size=(3, 3), stride=(1, 1), padding=(1, 1))
        (40): Dropout2d(p=0.0, inplace=False)
        (41): ReLU()
        (42): Conv2d(32, 32, kernel_size=(3, 3), stride=(1, 1), padding=(1, 1))
        (43): Dropout2d(p=0.0, inplace=False)
        (44): ReLU()
        (45): Conv2d(32, 32, kernel_size=(3, 3), stride=(1, 1), padding=(1, 1))
        (46): Dropout2d(p=0.0, inplace=False)
        (47): ReLU()
        (48): Conv2d(32, 32, kernel_size=(3, 3), stride=(1, 1), padding=(1, 1))
      )
      (shortcut_path): Sequential(
        (0): Conv2d(3, 32, kernel_size=(1, 1), stride=(1, 1), bias=False)
      )
    )
    (1): AvgPool2d(kernel_size=1, stride=1, padding=0)
    (2): ResidualBlock(
      (main_path): Sequential(
        (0): Conv2d(32, 32, kernel_size=(3, 3), stride=(1, 1), padding=(1, 1))
        (1): Dropout2d(p=0.0, inplace=False)
        (2): ReLU()
        (3): Conv2d(32, 32, kernel_size=(3, 3), stride=(1, 1), padding=(1, 1))
        (4): Dropout2d(p=0.0, inplace=False)
        (5): ReLU()
        (6): Conv2d(32, 32, kernel_size=(3, 3), stride=(1, 1), padding=(1, 1))
        (7): Dropout2d(p=0.0, inplace=False)
        (8): ReLU()
        (9): Conv2d(32, 32, kernel_size=(3, 3), stride=(1, 1), padding=(1, 1))
        (10): Dropout2d(p=0.0, inplace=False)
        (11): ReLU()
        (12): Conv2d(32, 32, kernel_size=(3, 3), stride=(1, 1), padding=(1, 1))
        (13): Dropout2d(p=0.0, inplace=False)
        (14): ReLU()
        (15): Conv2d(32, 32, kernel_size=(3, 3), stride=(1, 1), padding=(1, 1))
        (16): Dropout2d(p=0.0, inplace=False)
        (17): ReLU()
        (18): Conv2d(32, 32, kernel_size=(3, 3), stride=(1, 1), padding=(1, 1))
        (19): Dropout2d(p=0.0, inplace=False)
        (20): ReLU()
        (21): Conv2d(32, 32, kernel_size=(3, 3), stride=(1, 1), padding=(1, 1))
        (22): Dropout2d(p=0.0, inplace=False)
        (23): ReLU()
        (24): Conv2d(32, 32, kernel_size=(3, 3), stride=(1, 1), padding=(1, 1))
        (25): Dropout2d(p=0.0, inplace=False)
        (26): ReLU()
        (27): Conv2d(32, 32, kernel_size=(3, 3), stride=(1, 1), padding=(1, 1))
        (28): Dropout2d(p=0.0, inplace=False)
        (29): ReLU()
        (30): Conv2d(32, 32, kernel_size=(3, 3), stride=(1, 1), padding=(1, 1))
        (31): Dropout2d(p=0.0, inplace=False)
        (32): ReLU()
        (33): Conv2d(32, 32, kernel_size=(3, 3), stride=(1, 1), padding=(1, 1))
        (34): Dropout2d(p=0.0, inplace=False)
        (35): ReLU()
        (36): Conv2d(32, 32, kernel_size=(3, 3), stride=(1, 1), padding=(1, 1))
        (37): Dropout2d(p=0.0, inplace=False)
        (38): ReLU()
        (39): Conv2d(32, 32, kernel_size=(3, 3), stride=(1, 1), padding=(1, 1))
        (40): Dropout2d(p=0.0, inplace=False)
        (41): ReLU()
        (42): Conv2d(32, 32, kernel_size=(3, 3), stride=(1, 1), padding=(1, 1))
      )
      (shortcut_path): Sequential(
        (0): Identity()
      )
    )
  )
  (classifier): Sequential(
    (0): Linear(in_features=32768, out_features=100, bias=True)
    (1): ReLU()
    (2): Linear(in_features=100, out_features=10, bias=True)
  )
)
--- EPOCH 1/20 ---
train_batch:   0%|          | 0/167 [00:00<?, ?it/s]train_batch (2.303):   0%|          | 0/167 [00:00<?, ?it/s]train_batch (2.303):   1%|          | 1/167 [00:00<00:22,  7.41it/s]train_batch (3.293):   1%|          | 1/167 [00:00<00:22,  7.41it/s]train_batch (3.293):   1%|          | 2/167 [00:00<00:22,  7.35it/s]train_ba
…
:02<00:00, 56.25it/s]test_batch (1.430):  99%|█████████▊| 132/134 [00:02<00:00, 56.25it/s]test_batch (1.180):  99%|█████████▉| 133/134 [00:02<00:00, 56.25it/s]test_batch (Avg. Loss 1.346, Accuracy 52.4): 100%|██████████| 134/134 [00:02<00:00, 56.25it/s]test_batch (Avg. Loss 1.346, Accuracy 52.4): 100%|██████████| 134/134 [00:02<00:00, 56.02it/s]
*** Output file ./results/exp1_4_L32_K32.json written
Files already downloaded and verified
Files already downloaded and verified
ResNetClassifier(
  (feature_extractor): Sequential(
    (0): ResidualBlock(
      (main_path): Sequential(
        (0): Conv2d(3, 64, kernel_size=(3, 3), stride=(1, 1), padding=(1, 1))
        (1): Dropout2d(p=0.0, inplace=False)
        (2): ReLU()
        (3): Conv2d(64, 64, kernel_size=(3, 3), stride=(1, 1), padding=(1, 1))
      )
      (shortcut_path): Sequential(
        (0): Conv2d(3, 64, kernel_size=(1, 1), stride=(1, 1), bias=False)
      )
    )
    (1): AvgPool2d(kernel_size=1, stride=1, padding=0)
    (2): ResidualBlock(
      (main_path): Sequential(
        (0): Conv2d(64, 128, kernel_size=(3, 3), stride=(1, 1), padding=(1, 1))
        (1): Dropout2d(p=0.0, inplace=False)
        (2): ReLU()
        (3): Conv2d(128, 128, kernel_size=(3, 3), stride=(1, 1), padding=(1, 1))
      )
      (shortcut_path): Sequential(
        (0): Conv2d(64, 128, kernel_size=(1, 1), stride=(1, 1), bias=False)
      )
    )
    (3): AvgPool2d(kernel_size=1, stride=1, padding=0)
    (4): ResidualBlock(
      (main_path): Sequential(
        (0): Conv2d(128, 256, kernel_size=(3, 3), stride=(1, 1), padding=(1, 1))
        (1): Dropout2d(p=0.0, inplace=False)
        (2): ReLU()
        (3): Conv2d(256, 256, kernel_size=(3, 3), stride=(1, 1), padding=(1, 1))
      )
      (shortcut_path): Sequential(
        (0): Conv2d(128, 256, kernel_size=(1, 1), stride=(1, 1), bias=False)
      )
    )
    (5): AvgPool2d(kernel_size=1, stride=1, padding=0)
  )
  (classifier): Sequential(
    (0): Linear(in_features=262144, out_features=100, bias=True)
    (1): ReLU()
    (2): Linear(in_features=100, out_features=10, bias=True)
  )
)
--- EPOCH 1/20 ---
train_batch:   0%|          | 0/167 [00:00<?, ?it/s]train_batch (2.305):   0%|          | 0/167 [00:00<?, ?it/s]train_batch (2.305):   1%|          | 1/167 [00:00<00:53,  3.08it/s]train_batch (4.845):   1%|          | 1/167 [00:00<00:53,  3.08it/s]train_batch (4.845):   1%|          | 2/167 [00:00<00:53,  3.08it/s]train_ba
…
