*** SLURM BATCH JOB 'test_job' STARTING ***
*** Activating environment cs236781-hw ***
Files already downloaded and verified
Files already downloaded and verified
ResNetClassifier(
  (feature_extractor): Sequential(
    (0): ResidualBlock(
      (main_path): Sequential(
        (0): Conv2d(3, 64, kernel_size=(3, 3), stride=(1, 1), padding=(1, 1))
        (1): Dropout2d(p=0.0, inplace=False)
        (2): ReLU()
        (3): Conv2d(64, 64, kernel_size=(3, 3), stride=(1, 1), padding=(1, 1))
      )
      (shortcut_path): Sequential(
        (0): Conv2d(3, 64, kernel_size=(1, 1), stride=(1, 1), bias=False)
      )
    )
    (1): AvgPool2d(kernel_size=1, stride=1, padding=0)
    (2): ResidualBlock(
      (main_path): Sequential(
        (0): Conv2d(64, 128, kernel_size=(3, 3), stride=(1, 1), padding=(1, 1))
        (1): Dropout2d(p=0.0, inplace=False)
        (2): ReLU()
        (3): Conv2d(128, 128, kernel_size=(3, 3), stride=(1, 1), padding=(1, 1))
      )
      (shortcut_path): Sequential(
        (0): Conv2d(64, 128, kernel_size=(1, 1), stride=(1, 1), bias=False)
      )
    )
    (3): AvgPool2d(kernel_size=1, stride=1, padding=0)
    (4): ResidualBlock(
      (main_path): Sequential(
        (0): Conv2d(128, 256, kernel_size=(3, 3), stride=(1, 1), padding=(1, 1))
        (1): Dropout2d(p=0.0, inplace=False)
        (2): ReLU()
        (3): Conv2d(256, 256, kernel_size=(3, 3), stride=(1, 1), padding=(1, 1))
      )
      (shortcut_path): Sequential(
        (0): Conv2d(128, 256, kernel_size=(1, 1), stride=(1, 1), bias=False)
      )
    )
    (5): AvgPool2d(kernel_size=1, stride=1, padding=0)
  )
  (classifier): Sequential(
    (0): Linear(in_features=262144, out_features=100, bias=True)
    (1): ReLU()
    (2): Linear(in_features=100, out_features=10, bias=True)
  )
)
--- EPOCH 1/20 ---
train_batch:   0%|          | 0/167 [00:00<?, ?it/s]train_batch (2.305):   0%|          | 0/167 [00:01<?, ?it/s]train_batch (2.305):   1%|          | 1/167 [00:01<02:56,  1.07s/it]train_batch (4.845):   1%|          | 1/167 [00:01<02:56,  1.07s/it]train_batch (4.845):   1%|          | 2/167 [00:01<02:14,  1.23it/s]train_ba
…
00, 37.98it/s]test_batch (1.505):  99%|█████████▊| 132/134 [00:03<00:00, 37.98it/s]test_batch (1.584):  99%|█████████▉| 133/134 [00:03<00:00, 37.98it/s]test_batch (Avg. Loss 1.461, Accuracy 65.5): 100%|██████████| 134/134 [00:03<00:00, 37.98it/s]test_batch (Avg. Loss 1.461, Accuracy 65.5): 100%|██████████| 134/134 [00:03<00:00, 38.23it/s]
*** Output file ./results/exp1_4_L2_K64-128-256.json written
Files already downloaded and verified
Files already downloaded and verified
ResNetClassifier(
  (feature_extractor): Sequential(
    (0): ResidualBlock(
      (main_path): Sequential(
        (0): Conv2d(3, 64, kernel_size=(3, 3), stride=(1, 1), padding=(1, 1))
        (1): Dropout2d(p=0.0, inplace=False)
        (2): ReLU()
        (3): Conv2d(64, 64, kernel_size=(3, 3), stride=(1, 1), padding=(1, 1))
        (4): Dropout2d(p=0.0, inplace=False)
        (5): ReLU()
        (6): Conv2d(64, 64, kernel_size=(3, 3), stride=(1, 1), padding=(1, 1))
      )
      (shortcut_path): Sequential(
        (0): Conv2d(3, 64, kernel_size=(1, 1), stride=(1, 1), bias=False)
      )
    )
    (1): AvgPool2d(kernel_size=1, stride=1, padding=0)
    (2): ResidualBlock(
      (main_path): Sequential(
        (0): Conv2d(64, 64, kernel_size=(3, 3), stride=(1, 1), padding=(1, 1))
        (1): Dropout2d(p=0.0, inplace=False)
        (2): ReLU()
        (3): Conv2d(64, 128, kernel_size=(3, 3), stride=(1, 1), padding=(1, 1))
        (4): Dropout2d(p=0.0, inplace=False)
        (5): ReLU()
        (6): Conv2d(128, 128, kernel_size=(3, 3), stride=(1, 1), padding=(1, 1))
      )
      (shortcut_path): Sequential(
        (0): Conv2d(64, 128, kernel_size=(1, 1), stride=(1, 1), bias=False)
      )
    )
    (3): AvgPool2d(kernel_size=1, stride=1, padding=0)
    (4): ResidualBlock(
      (main_path): Sequential(
        (0): Conv2d(128, 128, kernel_size=(3, 3), stride=(1, 1), padding=(1, 1))
        (1): Dropout2d(p=0.0, inplace=False)
        (2): ReLU()
        (3): Conv2d(128, 128, kernel_size=(3, 3), stride=(1, 1), padding=(1, 1))
        (4): Dropout2d(p=0.0, inplace=False)
        (5): ReLU()
        (6): Conv2d(128, 256, kernel_size=(3, 3), stride=(1, 1), padding=(1, 1))
      )
      (shortcut_path): Sequential(
        (0): Conv2d(128, 256, kernel_size=(1, 1), stride=(1, 1), bias=False)
      )
    )
    (5): AvgPool2d(kernel_size=1, stride=1, padding=0)
    (6): ResidualBlock(
      (main_path): Sequential(
        (0): Conv2d(256, 256, kernel_size=(3, 3), stride=(1, 1), padding=(1, 1))
        (1): Dropout2d(p=0.0, inplace=False)
        (2): ReLU()
        (3): Conv2d(256, 256, kernel_size=(3, 3), stride=(1, 1), padding=(1, 1))
        (4): Dropout2d(p=0.0, inplace=False)
        (5): ReLU()
        (6): Conv2d(256, 256, kernel_size=(3, 3), stride=(1, 1), padding=(1, 1))
      )
      (shortcut_path): Sequential(
        (0): Identity()
      )
    )
    (7): AvgPool2d(kernel_size=1, stride=1, padding=0)
  )
  (classifier): Sequential(
    (0): Linear(in_features=262144, out_features=100, bias=True)
    (1): ReLU()
    (2): Linear(in_features=100, out_features=10, bias=True)
  )
)
--- EPOCH 1/20 ---
train_batch:   0%|          | 0/167 [00:00<?, ?it/s]train_batch (2.303):   0%|          | 0/167 [00:00<?, ?it/s]train_batch (2.303):   1%|          | 1/167 [00:00<01:15,  2.21it/s]train_batch (9.139):   1%|          | 1/167 [00:00<01:15,  2.21it/s]train_batch (9.139):   1%|          | 2/167 [00:00<01:13,  2.24it/s]train_ba
…
00, 23.13it/s]test_batch (1.697):  99%|█████████▊| 132/134 [00:05<00:00, 23.13it/s]test_batch (1.749):  99%|█████████▉| 133/134 [00:05<00:00, 23.13it/s]test_batch (Avg. Loss 1.398, Accuracy 62.4): 100%|██████████| 134/134 [00:05<00:00, 23.13it/s]test_batch (Avg. Loss 1.398, Accuracy 62.4): 100%|██████████| 134/134 [00:05<00:00, 23.14it/s]
*** Output file ./results/exp1_4_L4_K64-128-256.json written
Files already downloaded and verified
Files already downloaded and verified
ResNetClassifier(
  (feature_extractor): Sequential(
    (0): ResidualBlock(
      (main_path): Sequential(
        (0): Conv2d(3, 64, kernel_size=(3, 3), stride=(1, 1), padding=(1, 1))
        (1): Dropout2d(p=0.0, inplace=False)
        (2): ReLU()
        (3): Conv2d(64, 64, kernel_size=(3, 3), stride=(1, 1), padding=(1, 1))
        (4): Dropout2d(p=0.0, inplace=False)
        (5): ReLU()
        (6): Conv2d(64, 64, kernel_size=(3, 3), stride=(1, 1), padding=(1, 1))
        (7): Dropout2d(p=0.0, inplace=False)
        (8): ReLU()
        (9): Conv2d(64, 64, kernel_size=(3, 3), stride=(1, 1), padding=(1, 1))
        (10): Dropout2d(p=0.0, inplace=False)
        (11): ReLU()
        (12): Conv2d(64, 64, kernel_size=(3, 3), stride=(1, 1), padding=(1, 1))
      )
      (shortcut_path): Sequential(
        (0): Conv2d(3, 64, kernel_size=(1, 1), stride=(1, 1), bias=False)
      )
    )
    (1): AvgPool2d(kernel_size=1, stride=1, padding=0)
    (2): ResidualBlock(
      (main_path): Sequential(
        (0): Conv2d(64, 64, kernel_size=(3, 3), stride=(1, 1), padding=(1, 1))
        (1): Dropout2d(p=0.0, inplace=False)
        (2): ReLU()
        (3): Conv2d(64, 64, kernel_size=(3, 3), stride=(1, 1), padding=(1, 1))
        (4): Dropout2d(p=0.0, inplace=False)
        (5): ReLU()
        (6): Conv2d(64, 64, kernel_size=(3, 3), stride=(1, 1), padding=(1, 1))
        (7): Dropout2d(p=0.0, inplace=False)
        (8): ReLU()
        (9): Conv2d(64, 128, kernel_size=(3, 3), stride=(1, 1), padding=(1, 1))
        (10): Dropout2d(p=0.0, inplace=False)
        (11): ReLU()
        (12): Conv2d(128, 128, kernel_size=(3, 3), stride=(1, 1), padding=(1, 1))
      )
      (shortcut_path): Sequential(
        (0): Conv2d(64, 128, kernel_size=(1, 1), stride=(1, 1), bias=False)
      )
    )
    (3): AvgPool2d(kernel_size=1, stride=1, padding=0)
    (4): ResidualBlock(
      (main_path): Sequential(
        (0): Conv2d(128, 128, kernel_size=(3, 3), stride=(1, 1), padding=(1, 1))
        (1): Dropout2d(p=0.0, inplace=False)
        (2): ReLU()
        (3): Conv2d(128, 128, kernel_size=(3, 3), stride=(1, 1), padding=(1, 1))
        (4): Dropout2d(p=0.0, inplace=False)
        (5): ReLU()
        (6): Conv2d(128, 128, kernel_size=(3, 3), stride=(1, 1), padding=(1, 1))
        (7): Dropout2d(p=0.0, inplace=False)
        (8): ReLU()
        (9): Conv2d(128, 128, kernel_size=(3, 3), stride=(1, 1), padding=(1, 1))
        (10): Dropout2d(p=0.0, inplace=False)
        (11): ReLU()
        (12): Conv2d(128, 128, kernel_size=(3, 3), stride=(1, 1), padding=(1, 1))
      )
      (shortcut_path): Sequential(
        (0): Identity()
      )
    )
    (5): AvgPool2d(kernel_size=1, stride=1, padding=0)
    (6): ResidualBlock(
      (main_path): Sequential(
        (0): Conv2d(128, 128, kernel_size=(3, 3), stride=(1, 1), padding=(1, 1))
        (1): Dropout2d(p=0.0, inplace=False)
        (2): ReLU()
        (3): Conv2d(128, 256, kernel_size=(3, 3), stride=(1, 1), padding=(1, 1))
        (4): Dropout2d(p=0.0, inplace=False)
        (5): ReLU()
        (6): Conv2d(256, 256, kernel_size=(3, 3), stride=(1, 1), padding=(1, 1))
        (7): Dropout2d(p=0.0, inplace=False)
        (8): ReLU()
        (9): Conv2d(256, 256, kernel_size=(3, 3), stride=(1, 1), padding=(1, 1))
        (10): Dropout2d(p=0.0, inplace=False)
        (11): ReLU()
        (12): Conv2d(256, 256, kernel_size=(3, 3), stride=(1, 1), padding=(1, 1))
      )
      (shortcut_path): Sequential(
        (0): Conv2d(128, 256, kernel_size=(1, 1), stride=(1, 1), bias=False)
      )
    )
    (7): AvgPool2d(kernel_size=1, stride=1, padding=0)
    (8): ResidualBlock(
      (main_path): Sequential(
        (0): Conv2d(256, 256, kernel_size=(3, 3), stride=(1, 1), padding=(1, 1))
        (1): Dropout2d(p=0.0, inplace=False)
        (2): ReLU()
        (3): Conv2d(256, 256, kernel_size=(3, 3), stride=(1, 1), padding=(1, 1))
        (4): Dropout2d(p=0.0, inplace=False)
        (5): ReLU()
        (6): Conv2d(256, 256, kernel_size=(3, 3), stride=(1, 1), padding=(1, 1))
        (7): Dropout2d(p=0.0, inplace=False)
        (8): ReLU()
        (9): Conv2d(256, 256, kernel_size=(3, 3), stride=(1, 1), padding=(1, 1))
      )
      (shortcut_path): Sequential(
        (0): Identity()
      )
    )
  )
  (classifier): Sequential(
    (0): Linear(in_features=262144, out_features=100, bias=True)
    (1): ReLU()
    (2): Linear(in_features=100, out_features=10, bias=True)
  )
)
--- EPOCH 1/20 ---
train_batch:   0%|          | 0/167 [00:00<?, ?it/s]train_batch:   0%|          | 0/167 [00:00<?, ?it/s]
Traceback (most recent call last):
  File "run_exp.py", line 93, in <module>
    run_all_exp()
  File "run_exp.py", line 82, in run_all_exp
    run_exp_1_4()
  File "run_exp.py", line 59, in run_exp_1_4
    experiments.run_experiment(
…
